…
            "best_val_loss": 0.5740952789498172,
            "stopped_epoch": 10
        },
        "test_results": {
            "accuracy": 0.7470316509837468,
            "precision": 0.7457901705226435,
            "recall": 0.7470316509837468,
            "f1": 0.7461299119452863
        }
    },
    {
        "timestamp": "2025-11-27 14:02:53",
        "model_class": "BERT",
        "model_name": "MacBERT",
        "model_config": {
            "total_parameters": 102269955,
            "trainable_parameters": 102269955,
            "model_structure": [
                "BertModel(\n  (embeddings): BertEmbeddings(\n    (word_embeddings): Embedding(21128, 768, padding_idx=0)\n    (position_embeddings): Embedding(512, 768)\n    (token_type_embeddings): Embedding(2, 768)\n    (LayerNorm): LayerNorm((768,), eps=1e-12, elementwise_affine=True)\n    (dropout): Dropout(p=0.1, inplace=False)\n  )\n  (encoder): BertEncoder(\n    (layer): ModuleList(\n      (0-11): 12 x BertLayer(\n        (attention): BertAttention(\n          (self): BertSdpaSelfAttention(\n            (query): Linear(in_features=768, out_features=768, bias=True)\n            (key): Linear(in_features=768, out_features=768, bias=True)\n            (value): Linear(in_features=768, out_features=768, bias=True)\n            (dropout): Dropout(p=0.1, inplace=False)\n          )\n          (output): BertSelfOutput(\n            (dense): Linear(in_features=768, out_features=768, bias=True)\n            (LayerNorm): LayerNorm((768,), eps=1e-12, elementwise_affine=True)\n            (dropout): Dropout(p=0.1, inplace=False)\n          )\n        )\n        (intermediate): BertIntermediate(\n          (dense): Linear(in_features=768, out_features=3072, bias=True)\n          (intermediate_act_fn): GELUActivation()\n        )\n        (output): BertOutput(\n          (dense): Linear(in_features=3072, out_features=768, bias=True)\n          (LayerNorm): LayerNorm((768,), eps=1e-12, elementwise_affine=True)\n          (dropout): Dropout(p=0.1, inplace=False)\n        )\n      )\n    )\n  )\n  (pooler): BertPooler(\n    (dense): Linear(in_features=768, out_features=768, bias=True)\n    (activation): Tanh()\n  )\n)",
                "Dropout(p=0.3, inplace=False)",
                "Linear(in_features=768, out_features=3, bias=True)"
            ]
        },
        "set_epochs": 10,
        "actual_epochs": 7,
        "device": "cuda",
        "use_pretrained_embeddings": false,
        "training_history": {
            "train_losses": [
…
