…
        0.6877817937921527
      ],
      "early_stopped": true,
      "best_val_loss": 0.7343452275864985,
      "stopped_epoch": 8
    },
    "test_results": {
      "accuracy": 0.6916944511706745,
      "precision": 0.6797325796598173,
      "recall": 0.6916944511706745,
      "f1": 0.6815713820164756
    }
  },
  {
    "timestamp": "2025-11-15 08:21:47",
    "model_class": "BERT",
    "model_name": "MacBERT",
    "model_config": {
      "total_parameters": 102269955,
      "trainable_parameters": 102269955,
      "model_structure": [
        "BertModel(\n  (embeddings): BertEmbeddings(\n    (word_embeddings): Embedding(21128, 768, padding_idx=0)\n    (position_embeddings): Embedding(512, 768)\n    (token_type_embeddings): Embedding(2, 768)\n    (LayerNorm): LayerNorm((768,), eps=1e-12, elementwise_affine=True)\n    (dropout): Dropout(p=0.1, inplace=False)\n  )\n  (encoder): BertEncoder(\n    (layer): ModuleList(\n      (0-11): 12 x BertLayer(\n        (attention): BertAttention(\n          (self): BertSdpaSelfAttention(\n            (query): Linear(in_features=768, out_features=768, bias=True)\n            (key): Linear(in_features=768, out_features=768, bias=True)\n            (value): Linear(in_features=768, out_features=768, bias=True)\n            (dropout): Dropout(p=0.1, inplace=False)\n          )\n          (output): BertSelfOutput(\n            (dense): Linear(in_features=768, out_features=768, bias=True)\n            (LayerNorm): LayerNorm((768,), eps=1e-12, elementwise_affine=True)\n            (dropout): Dropout(p=0.1, inplace=False)\n          )\n        )\n        (intermediate): BertIntermediate(\n          (dense): Linear(in_features=768, out_features=3072, bias=True)\n          (intermediate_act_fn): GELUActivation()\n        )\n        (output): BertOutput(\n          (dense): Linear(in_features=3072, out_features=768, bias=True)\n          (LayerNorm): LayerNorm((768,), eps=1e-12, elementwise_affine=True)\n          (dropout): Dropout(p=0.1, inplace=False)\n        )\n      )\n    )\n  )\n  (pooler): BertPooler(\n    (dense): Linear(in_features=768, out_features=768, bias=True)\n    (activation): Tanh()\n  )\n)",
        "Dropout(p=0.3, inplace=False)",
        "Linear(in_features=768, out_features=3, bias=True)"
      ]
    },
    "set_epochs": 10,
    "actual_epochs": 7,
    "device": "cuda",
    "use_pretrained_embeddings": false,
    "training_history": {
      "train_losses": [
        0.6788359491536028,
        0.4913581022056291,
…
